./out/485/bin 600 300 1 LSTM 0.5 0.3 1
Tue Dec 19 20:25:59 PST 2017 - Running on cdr348.int.cedar.computecanada.ca
Processing data..
Building model..
EncoderRNN(
  (embedding): Embedding(9935, 300)
  (dropout): Dropout(p=0.5)
  (rnn): LSTM(300, 600)
  (img_cond): Linear(in_features=2648, out_features=600)
)
Luong_Decoder(
  (embedding): Embedding(11618, 300)
  (attn): Luong_Attention(
    (attn): Linear(in_features=600, out_features=600)
  )
  (dropout): Dropout(p=0.5)
  (out): Linear(in_features=600, out_features=11618)
  (concat): Linear(in_features=1200, out_features=600)
  (rnn): LSTM(300, 600)
)
Luong_Decoder(
  (embedding): Embedding(17911, 300)
  (attn): Luong_Attention(
    (attn): Linear(in_features=600, out_features=600)
  )
  (dropout): Dropout(p=0.5)
  (out): Linear(in_features=600, out_features=17911)
  (concat): Linear(in_features=1200, out_features=600)
  (rnn): LSTM(300, 600)
)
Starting training..
| epoch   1 |    20/  453 batches | lr 0.0010 | ms/batch 1050.87 | loss A  6.83 | ppl A   926.87 | loss B  7.08 | ppl B  1186.43
| epoch   1 |    40/  453 batches | lr 0.0010 | ms/batch 628.60 | loss A  5.59 | ppl A   267.32 | loss B  5.77 | ppl B   322.04
| epoch   1 |    60/  453 batches | lr 0.0010 | ms/batch 611.18 | loss A  5.42 | ppl A   226.69 | loss B  5.58 | ppl B   265.83
…
