./out/489/bin 500 400 1 LSTM 0.5 0.3 1
Tue Dec 19 20:25:59 PST 2017 - Running on cdr349.int.cedar.computecanada.ca
Processing data..
Building model..
EncoderRNN(
  (embedding): Embedding(9935, 400)
  (dropout): Dropout(p=0.5)
  (rnn): LSTM(400, 500)
  (img_cond): Linear(in_features=2548, out_features=500)
)
Luong_Decoder(
  (embedding): Embedding(11618, 400)
  (attn): Luong_Attention(
    (attn): Linear(in_features=500, out_features=500)
  )
  (dropout): Dropout(p=0.5)
  (out): Linear(in_features=500, out_features=11618)
  (concat): Linear(in_features=1000, out_features=500)
  (rnn): LSTM(400, 500)
)
Luong_Decoder(
  (embedding): Embedding(17911, 400)
  (attn): Luong_Attention(
    (attn): Linear(in_features=500, out_features=500)
  )
  (dropout): Dropout(p=0.5)
  (out): Linear(in_features=500, out_features=17911)
  (concat): Linear(in_features=1000, out_features=500)
  (rnn): LSTM(400, 500)
)
Starting training..
| epoch   1 |    20/  453 batches | lr 0.0010 | ms/batch 987.75 | loss A  6.96 | ppl A  1056.66 | loss B  7.12 | ppl B  1240.84
| epoch   1 |    40/  453 batches | lr 0.0010 | ms/batch 597.91 | loss A  5.67 | ppl A   288.63 | loss B  5.72 | ppl B   304.72
| epoch   1 |    60/  453 batches | lr 0.0010 | ms/batch 581.59 | loss A  5.47 | ppl A   237.75 | loss B  5.59 | ppl B   267.40
…
