./out/483/bin 600 300 1 LSTM 0.5 0.2 1
Tue Dec 19 20:25:59 PST 2017 - Running on cdr348.int.cedar.computecanada.ca
Processing data..
Building model..
EncoderRNN(
  (embedding): Embedding(9935, 300)
  (dropout): Dropout(p=0.5)
  (rnn): LSTM(300, 600)
  (img_cond): Linear(in_features=2648, out_features=600)
)
Luong_Decoder(
  (embedding): Embedding(11618, 300)
  (attn): Luong_Attention(
    (attn): Linear(in_features=600, out_features=600)
  )
  (dropout): Dropout(p=0.5)
  (out): Linear(in_features=600, out_features=11618)
  (concat): Linear(in_features=1200, out_features=600)
  (rnn): LSTM(300, 600)
)
Luong_Decoder(
  (embedding): Embedding(17911, 300)
  (attn): Luong_Attention(
    (attn): Linear(in_features=600, out_features=600)
  )
  (dropout): Dropout(p=0.5)
  (out): Linear(in_features=600, out_features=17911)
  (concat): Linear(in_features=1200, out_features=600)
  (rnn): LSTM(300, 600)
)
Starting training..
| epoch   1 |    20/  453 batches | lr 0.0010 | ms/batch 1026.59 | loss A  6.85 | ppl A   945.83 | loss B  7.06 | ppl B  1170.06
| epoch   1 |    40/  453 batches | lr 0.0010 | ms/batch 629.14 | loss A  5.60 | ppl A   270.04 | loss B  5.82 | ppl B   337.19
| epoch   1 |    60/  453 batches | lr 0.0010 | ms/batch 607.82 | loss A  5.46 | ppl A   235.45 | loss B  5.63 | ppl B   278.15
…
