./out/471/bin 500 250 1 LSTM 0.5 0.2 1
Tue Dec 19 20:25:59 PST 2017 - Running on cdr305.int.cedar.computecanada.ca
Processing data..
Building model..
EncoderRNN(
  (embedding): Embedding(9935, 250)
  (dropout): Dropout(p=0.5)
  (rnn): LSTM(250, 500)
  (img_cond): Linear(in_features=2548, out_features=500)
)
Luong_Decoder(
  (embedding): Embedding(11618, 250)
  (attn): Luong_Attention(
    (attn): Linear(in_features=500, out_features=500)
  )
  (dropout): Dropout(p=0.5)
  (out): Linear(in_features=500, out_features=11618)
  (concat): Linear(in_features=1000, out_features=500)
  (rnn): LSTM(250, 500)
)
Luong_Decoder(
  (embedding): Embedding(17911, 250)
  (attn): Luong_Attention(
    (attn): Linear(in_features=500, out_features=500)
  )
  (dropout): Dropout(p=0.5)
  (out): Linear(in_features=500, out_features=17911)
  (concat): Linear(in_features=1000, out_features=500)
  (rnn): LSTM(250, 500)
)
Starting training..
| epoch   1 |    20/  453 batches | lr 0.0010 | ms/batch 1008.46 | loss A  6.99 | ppl A  1083.17 | loss B  7.21 | ppl B  1349.09
| epoch   1 |    40/  453 batches | lr 0.0010 | ms/batch 583.10 | loss A  5.58 | ppl A   265.60 | loss B  5.66 | ppl B   286.50
| epoch   1 |    60/  453 batches | lr 0.0010 | ms/batch 575.13 | loss A  5.48 | ppl A   240.19 | loss B  5.56 | ppl B   259.76
…
