./out/475/bin 600 250 1 LSTM 0.5 0.2 1
Tue Dec 19 20:25:59 PST 2017 - Running on cdr292.int.cedar.computecanada.ca
Processing data..
Building model..
EncoderRNN(
  (embedding): Embedding(9935, 250)
  (dropout): Dropout(p=0.5)
  (rnn): LSTM(250, 600)
  (img_cond): Linear(in_features=2648, out_features=600)
)
Luong_Decoder(
  (embedding): Embedding(11618, 250)
  (attn): Luong_Attention(
    (attn): Linear(in_features=600, out_features=600)
  )
  (dropout): Dropout(p=0.5)
  (out): Linear(in_features=600, out_features=11618)
  (concat): Linear(in_features=1200, out_features=600)
  (rnn): LSTM(250, 600)
)
Luong_Decoder(
  (embedding): Embedding(17911, 250)
  (attn): Luong_Attention(
    (attn): Linear(in_features=600, out_features=600)
  )
  (dropout): Dropout(p=0.5)
  (out): Linear(in_features=600, out_features=17911)
  (concat): Linear(in_features=1200, out_features=600)
  (rnn): LSTM(250, 600)
)
Starting training..
| epoch   1 |    20/  453 batches | lr 0.0010 | ms/batch 1013.08 | loss A  6.91 | ppl A   999.90 | loss B  7.08 | ppl B  1182.19
| epoch   1 |    40/  453 batches | lr 0.0010 | ms/batch 617.45 | loss A  5.57 | ppl A   262.69 | loss B  5.72 | ppl B   305.77
| epoch   1 |    60/  453 batches | lr 0.0010 | ms/batch 615.11 | loss A  5.44 | ppl A   230.71 | loss B  5.55 | ppl B   256.73
…
