./out/473/bin 500 250 1 LSTM 0.5 0.3 1
Tue Dec 19 20:25:59 PST 2017 - Running on cdr292.int.cedar.computecanada.ca
Processing data..
Building model..
EncoderRNN(
  (embedding): Embedding(9935, 250)
  (dropout): Dropout(p=0.5)
  (rnn): LSTM(250, 500)
  (img_cond): Linear(in_features=2548, out_features=500)
)
Luong_Decoder(
  (embedding): Embedding(11618, 250)
  (attn): Luong_Attention(
    (attn): Linear(in_features=500, out_features=500)
  )
  (dropout): Dropout(p=0.5)
  (out): Linear(in_features=500, out_features=11618)
  (concat): Linear(in_features=1000, out_features=500)
  (rnn): LSTM(250, 500)
)
Luong_Decoder(
  (embedding): Embedding(17911, 250)
  (attn): Luong_Attention(
    (attn): Linear(in_features=500, out_features=500)
  )
  (dropout): Dropout(p=0.5)
  (out): Linear(in_features=500, out_features=17911)
  (concat): Linear(in_features=1000, out_features=500)
  (rnn): LSTM(250, 500)
)
Starting training..
| epoch   1 |    20/  453 batches | lr 0.0010 | ms/batch 978.57 | loss A  6.96 | ppl A  1054.54 | loss B  7.21 | ppl B  1347.64
| epoch   1 |    40/  453 batches | lr 0.0010 | ms/batch 574.08 | loss A  5.66 | ppl A   288.23 | loss B  5.74 | ppl B   310.89
| epoch   1 |    60/  453 batches | lr 0.0010 | ms/batch 599.87 | loss A  5.45 | ppl A   233.67 | loss B  5.60 | ppl B   271.14
…
