./out/479/bin 500 300 1 LSTM 0.5 0.2 1
Tue Dec 19 20:25:59 PST 2017 - Running on cdr343.int.cedar.computecanada.ca
Processing data..
Building model..
EncoderRNN(
  (embedding): Embedding(9935, 300)
  (dropout): Dropout(p=0.5)
  (rnn): LSTM(300, 500)
  (img_cond): Linear(in_features=2548, out_features=500)
)
Luong_Decoder(
  (embedding): Embedding(11618, 300)
  (attn): Luong_Attention(
    (attn): Linear(in_features=500, out_features=500)
  )
  (dropout): Dropout(p=0.5)
  (out): Linear(in_features=500, out_features=11618)
  (concat): Linear(in_features=1000, out_features=500)
  (rnn): LSTM(300, 500)
)
Luong_Decoder(
  (embedding): Embedding(17911, 300)
  (attn): Luong_Attention(
    (attn): Linear(in_features=500, out_features=500)
  )
  (dropout): Dropout(p=0.5)
  (out): Linear(in_features=500, out_features=17911)
  (concat): Linear(in_features=1000, out_features=500)
  (rnn): LSTM(300, 500)
)
Starting training..
| epoch   1 |    20/  453 batches | lr 0.0010 | ms/batch 997.69 | loss A  6.99 | ppl A  1080.49 | loss B  7.21 | ppl B  1350.44
| epoch   1 |    40/  453 batches | lr 0.0010 | ms/batch 584.48 | loss A  5.65 | ppl A   284.37 | loss B  5.76 | ppl B   317.81
| epoch   1 |    60/  453 batches | lr 0.0010 | ms/batch 577.12 | loss A  5.53 | ppl A   252.16 | loss B  5.53 | ppl B   251.76
…
