./out/487/bin 500 400 1 LSTM 0.5 0.2 1
Tue Dec 19 20:25:59 PST 2017 - Running on cdr349.int.cedar.computecanada.ca
Processing data..
Building model..
EncoderRNN(
  (embedding): Embedding(9935, 400)
  (dropout): Dropout(p=0.5)
  (rnn): LSTM(400, 500)
  (img_cond): Linear(in_features=2548, out_features=500)
)
Luong_Decoder(
  (embedding): Embedding(11618, 400)
  (attn): Luong_Attention(
    (attn): Linear(in_features=500, out_features=500)
  )
  (dropout): Dropout(p=0.5)
  (out): Linear(in_features=500, out_features=11618)
  (concat): Linear(in_features=1000, out_features=500)
  (rnn): LSTM(400, 500)
)
Luong_Decoder(
  (embedding): Embedding(17911, 400)
  (attn): Luong_Attention(
    (attn): Linear(in_features=500, out_features=500)
  )
  (dropout): Dropout(p=0.5)
  (out): Linear(in_features=500, out_features=17911)
  (concat): Linear(in_features=1000, out_features=500)
  (rnn): LSTM(400, 500)
)
Starting training..
| epoch   1 |    20/  453 batches | lr 0.0010 | ms/batch 990.58 | loss A  6.94 | ppl A  1034.88 | loss B  7.09 | ppl B  1202.68
| epoch   1 |    40/  453 batches | lr 0.0010 | ms/batch 542.68 | loss A  5.59 | ppl A   267.55 | loss B  5.71 | ppl B   303.12
| epoch   1 |    60/  453 batches | lr 0.0010 | ms/batch 604.52 | loss A  5.45 | ppl A   233.42 | loss B  5.56 | ppl B   260.56
…
