./out/493/bin 600 400 1 LSTM 0.5 0.3 1
Tue Dec 19 20:25:59 PST 2017 - Running on cdr386.int.cedar.computecanada.ca
Processing data..
Building model..
EncoderRNN(
  (embedding): Embedding(9935, 400)
  (dropout): Dropout(p=0.5)
  (rnn): LSTM(400, 600)
  (img_cond): Linear(in_features=2648, out_features=600)
)
Luong_Decoder(
  (embedding): Embedding(11618, 400)
  (attn): Luong_Attention(
    (attn): Linear(in_features=600, out_features=600)
  )
  (dropout): Dropout(p=0.5)
  (out): Linear(in_features=600, out_features=11618)
  (concat): Linear(in_features=1200, out_features=600)
  (rnn): LSTM(400, 600)
)
Luong_Decoder(
  (embedding): Embedding(17911, 400)
  (attn): Luong_Attention(
    (attn): Linear(in_features=600, out_features=600)
  )
  (dropout): Dropout(p=0.5)
  (out): Linear(in_features=600, out_features=17911)
  (concat): Linear(in_features=1200, out_features=600)
  (rnn): LSTM(400, 600)
)
Starting training..
| epoch   1 |    20/  453 batches | lr 0.0010 | ms/batch 1038.92 | loss A  6.90 | ppl A   988.96 | loss B  7.05 | ppl B  1157.20
| epoch   1 |    40/  453 batches | lr 0.0010 | ms/batch 644.10 | loss A  5.63 | ppl A   277.88 | loss B  5.72 | ppl B   305.59
| epoch   1 |    60/  453 batches | lr 0.0010 | ms/batch 629.72 | loss A  5.44 | ppl A   230.84 | loss B  5.60 | ppl B   270.21
…
