./out/477/bin 600 250 1 LSTM 0.5 0.3 1
Tue Dec 19 20:25:59 PST 2017 - Running on cdr347.int.cedar.computecanada.ca
Processing data..
Building model..
EncoderRNN(
  (embedding): Embedding(9935, 250)
  (dropout): Dropout(p=0.5)
  (rnn): LSTM(250, 600)
  (img_cond): Linear(in_features=2648, out_features=600)
)
Luong_Decoder(
  (embedding): Embedding(11618, 250)
  (attn): Luong_Attention(
    (attn): Linear(in_features=600, out_features=600)
  )
  (dropout): Dropout(p=0.5)
  (out): Linear(in_features=600, out_features=11618)
  (concat): Linear(in_features=1200, out_features=600)
  (rnn): LSTM(250, 600)
)
Luong_Decoder(
  (embedding): Embedding(17911, 250)
  (attn): Luong_Attention(
    (attn): Linear(in_features=600, out_features=600)
  )
  (dropout): Dropout(p=0.5)
  (out): Linear(in_features=600, out_features=17911)
  (concat): Linear(in_features=1200, out_features=600)
  (rnn): LSTM(250, 600)
)
Starting training..
| epoch   1 |    20/  453 batches | lr 0.0010 | ms/batch 1039.96 | loss A  6.88 | ppl A   975.25 | loss B  7.08 | ppl B  1190.59
| epoch   1 |    40/  453 batches | lr 0.0010 | ms/batch 633.11 | loss A  5.57 | ppl A   262.18 | loss B  5.74 | ppl B   310.33
| epoch   1 |    60/  453 batches | lr 0.0010 | ms/batch 597.85 | loss A  5.43 | ppl A   228.78 | loss B  5.53 | ppl B   252.85
…
