./out/491/bin 600 400 1 LSTM 0.5 0.2 1
Tue Dec 19 20:25:59 PST 2017 - Running on cdr386.int.cedar.computecanada.ca
Processing data..
Building model..
EncoderRNN(
  (embedding): Embedding(9935, 400)
  (dropout): Dropout(p=0.5)
  (rnn): LSTM(400, 600)
  (img_cond): Linear(in_features=2648, out_features=600)
)
Luong_Decoder(
  (embedding): Embedding(11618, 400)
  (attn): Luong_Attention(
    (attn): Linear(in_features=600, out_features=600)
  )
  (dropout): Dropout(p=0.5)
  (out): Linear(in_features=600, out_features=11618)
  (concat): Linear(in_features=1200, out_features=600)
  (rnn): LSTM(400, 600)
)
Luong_Decoder(
  (embedding): Embedding(17911, 400)
  (attn): Luong_Attention(
    (attn): Linear(in_features=600, out_features=600)
  )
  (dropout): Dropout(p=0.5)
  (out): Linear(in_features=600, out_features=17911)
  (concat): Linear(in_features=1200, out_features=600)
  (rnn): LSTM(400, 600)
)
Starting training..
| epoch   1 |    20/  453 batches | lr 0.0010 | ms/batch 1049.54 | loss A  6.85 | ppl A   942.76 | loss B  7.08 | ppl B  1186.88
| epoch   1 |    40/  453 batches | lr 0.0010 | ms/batch 627.63 | loss A  5.65 | ppl A   283.14 | loss B  5.78 | ppl B   322.51
| epoch   1 |    60/  453 batches | lr 0.0010 | ms/batch 611.64 | loss A  5.47 | ppl A   237.15 | loss B  5.62 | ppl B   276.88
…
